HW1/models/HW1.model_1101_1329.pth (torch, 4161 bytes, 11 tensors)

net.0.weight f4 [3, 6]
-0.22122593 0.19790253 -0.005204293 -0.18335274 -0.25675803 -0.52135 1.4807999 0.58646846
0.18945111 -0.17833643 -1.2543792 0.26516733 0.0014919236 -0.07271053 0.022375427 -0.0052272263
-0.11409351 -0.004814484
00000000: 0d89 62be f6a6 4a3e c688 aabb d2c0 3bbe
00000010: ca75 83be 3277 05bf da8a bd3f cc22 163f
00000020: 79ff 413e d39d 36be 7f8f a0bf 03c4 873e
00000030: a68c c33a 42e9 94bd ac4c b73c 2749 abbb
00000040: dca9 e9bd d2c2 9dbb

net.0.bias f4 [3]
-0.64041704 0.6199188 -0.36798173
00000000: 5ff2 23bf 00b3 1e3f 1a68 bcbe

net.2.weight f4 [3, 3]
-0.1537747 0.6267416 -0.016642148 0.07204819 0.3710102 -0.00015962242 -0.35834956 0.34704992
1.3152201e-05
00000000: 1d77 1dbe 2372 203f 1d55 88bc 008e 933d
00000010: 0df5 bd3e 5160 27b9 9879 b7be 87b0 b13e
00000020: 46a8 5c37

net.2.bias f4 [3]
-0.20133203 -0.053700574 -0.44061548
00000000: fc29 4ebe 22f5 5bbd 5a98 e1be

net.5.weight f4 [3, 3]
0.28433064 0.37673536 0.064953975 0.17229554 0.10652818 0.2856396 0.48034137 0.3723551
0.45204526
00000000: c993 913e 75e3 c03e 9706 853d 3e6e 303e
00000010: 722b da3d 5b3f 923e 4eef f53e 54a5 be3e
00000020: 7a72 e73e

net.5.bias f4 [3]
-0.19552132 0.161557 0.14335704
00000000: be36 48be 336f 253e 30cc 123e

net.8.weight f4 [3, 3]
0.21701902 0.1556394 0.2844374 0.17021975 0.21130778 0.4500629 -0.32626513 -0.34787145
0.5734295
00000000: 3c3a 5e3e ef5f 1f3e c7a1 913e 164e 2e3e
00000010: 1161 583e a56e e63e 390c a7be 351c b2be
00000020: 47cc 123f

net.8.bias f4 [3]
0.18531136 0.14064793 0.06407896
00000000: 43c2 3d3e 0306 103e d43b 833d

net.11.weight f4 [3, 3]
0.2638133 0.27755246 0.2561851 0.07379358 0.16645044 0.187747 0.37816566 0.108225256
0.3545311
00000000: 8912 873e 5b1b 8e3e b22a 833e 1721 973d
00000010: fc71 2a3e c040 403e ee9e c13e 34a5 dd3d
00000020: 1a85 b53e

net.11.bias f4 [3]
4.6384788 4.265816 4.4510794
00000000: 6b6e 9440 9181 8840 3e6f 8e40

net.14.weight f4 [1, 3]
1.4361831 1.4880652 1.3808265
00000000: d9d4 b73f ec78 be3f ecbe b03f
