HW1/models/HW1.model_1101_1329.pth (torch, 7136 bytes, 19 tensors)

net.0.weight f4 [3, 6]
000000 8c 9d ea 3f 2e ff 60 3f 28 1a b7 3e 01 91 10 3d
       1.832933 0.87889373 0.35762143 0.035294537
000010 75 0b 0c bf 56 22 d8 3d 1d 73 69 40 3a 1e c8 3f
       -0.5470498 0.10553424 3.647651 1.5634224
000020 ef 87 be 3e b9 7b de bd 65 29 7c bf 8f ff 18 be
       0.37213084 -0.10863442 -0.98500663 -0.14941238
000030 68 fe b7 be 3c d9 bc be ad 3d d5 be 57 73 b4 3d
       -0.35936284 -0.36884487 -0.41648617 0.08811062
000040 84 24 a2 3d 4a 48 b0 3e
       0.07917121 0.34430152

net.0.bias f4 [3]
000000 e1 ec ab b5 51 b0 a6 37 d2 a2 ce 32
       -1.2809434e-06 1.9870846e-05 2.4055598e-08

net.1.weight f4 [3]
000000 40 4d 8e 3e 66 b1 87 3f 46 dd 27 3d
       0.27793312 1.0601013 0.040982507

net.1.bias f4 [3]
000000 cf ae 80 3f dc 43 ea 3f f2 3a af be
       1.0053347 1.8301959 -0.3422466

net.1.running_mean f4 [3]
000000 e5 8c d5 bc 4c 0c 55 bd 2a ce e6 3b
       -0.02606816 -0.05201368 0.0070436196

net.1.running_var f4 [3]
000000 80 e9 cd 40 33 9c 9a 41 69 0b 34 3f
       6.4347534 19.32627 0.7032991

net.3.weight f4 [3, 3]
000000 c0 96 b9 3e 7f 71 4b 3f 24 29 5c bd 0f 21 72 3e
       0.36247826 0.79470056 -0.053750172 0.23645423
000010 de 40 97 3f 1f ea a6 bc 86 d6 c5 3c d6 3f 6a 3f
       1.1816671 -0.02037531 0.024150144 0.91503656
000020 88 d1 49 bd
       -0.04927209

net.3.bias f4 [3]
000000 76 6a f0 37 4b 22 48 b8 99 59 b9 b8
       2.8659804e-05 -4.7715654e-05 -8.838176e-05

net.4.weight f4 [3]
000000 ba 2a ef 3f 8d f7 f7 3f 83 2b f1 3f
       1.8684914 1.9372422 1.8841404

net.4.bias f4 [3]
000000 c9 b7 59 3f bb 0a 81 3f 99 59 4c 3f
       0.8504606 1.00814 0.79824215

net.4.running_mean f4 [3]
000000 cc ca f6 3f 9b 9e 29 40 b8 3b e4 3f
       1.9280639 2.6503055 1.7830725

net.4.running_var f4 [3]
000000 42 5a 82 3f 2a 34 0c 40 4b c4 90 3f
       1.0183794 2.1906838 1.1309904

net.7.weight f4 [3, 3]
000000 47 97 9a 3f e7 42 b5 3f 42 d9 9c 3f 99 b4 99 3f
       1.2077416 1.4161042 1.2253802 1.2008239
000010 d0 69 a0 3f 7d 3a 90 3f 4f bd d1 3f a3 1c 9b 3f
       1.2532291 1.1267849 1.6385897 1.2118114
000020 6e 8c 86 3f
       1.0511606

net.7.bias f4 [3]
000000 b3 47 5f 37 38 e4 cc b6 ce 3c dd 36
       1.330853e-05 -6.106242e-06 6.593392e-06

net.8.weight f4 [3]
000000 17 d6 fe 3f 51 7c f5 3f ac d8 0a 40
       1.9909085 1.9178563 2.1694746

net.8.bias f4 [3]
000000 1e dd 2a 40 96 8b 27 40 d0 ca 22 40
       2.669746 2.6178946 2.5436287

net.8.running_mean f4 [3]
000000 6e ca 93 40 28 94 88 40 aa b9 94 40
       4.6184607 4.2680855 4.647664

net.8.running_var f4 [3]
000000 dc 87 80 42 c2 23 5b 42 92 b0 82 42
       64.26535 54.78492 65.344864

net.11.weight f4 [1, 3]
000000 e4 2d 0d 40 0f 00 0a 40 a9 98 0b 40
       2.205926 2.1562536 2.1811926
