HW1/models/HW1.model_1101_1244.pth (torch, 2959 bytes, 7 tensors)

net.0.weight f4 [3, 6]
000000 55 b8 ce 3d 9f 93 a1 3d 63 fe 37 bd 92 b3 c8 be
       0.10093752 0.078894846 -0.044920336 -0.391995
000010 a1 ea 06 bf 62 ed 5f 3e df 2c 99 3f 84 d4 b4 bf
       -0.52701765 0.21867898 1.1966819 -1.4127355
000020 eb a5 18 bf 9d c8 67 3e 61 23 13 3f aa 7c 75 bf
       -0.5962817 0.22635122 0.5747586 -0.9589335
000030 bb 42 03 40 75 4e 47 3f 6a c0 f2 3e 0d f5 1d 3e
       2.050948 0.7785409 0.47412425 0.1542551
000040 08 a8 0f bf 50 20 3f 3d
       -0.5611577 0.046661675

net.0.bias f4 [3]
000000 c9 94 2a bd 88 a0 e3 bf 97 48 a1 3f
       -0.0416458 -1.7783365 1.2600278

net.2.weight f4 [3, 3]
000000 d2 9e 68 3e 10 8c 8c bf 8d cc 5c 3f 39 6c 4e 3e
       0.22716835 -1.0980244 0.8624962 0.20158471
000010 16 02 6c bf 23 a0 8d 3f 0f 62 bd 3d ea 88 87 bf
       -0.9219068 1.1064495 0.09247219 -1.0588658
000020 82 1e 1a 3f
       0.602028

net.2.bias f4 [3]
000000 94 c9 23 bd f9 65 04 bd 77 6b 82 be
       -0.03998716 -0.03232381 -0.25472614

net.5.weight f4 [3, 3]
000000 dd 54 00 3f 7b 0a 27 3f d4 47 45 3f e2 6e 41 3f
       0.5012949 0.65250367 0.77062726 0.7555982
000010 5b 08 1c 3f a4 1d 40 3e 34 e4 05 3f f2 33 45 3f
       0.6095025 0.18761307 0.52301335 0.7703239
000020 5e 24 00 3f
       0.5005549

net.5.bias f4 [3]
000000 d8 ad 0c 40 63 17 1c 40 c4 d6 16 40
       2.1981106 2.4389274 2.3568583

net.8.weight f4 [1, 3]
000000 70 e1 bf 3f 9c 04 ac 3f 66 a9 b7 3f
       1.4990673 1.3438907 1.4348571
