HW1/submit/1234556.pth (torch, 2327 bytes, 5 tensors)

net.0.weight f4 [3, 6]
000000 16 34 90 bf 42 91 87 be 77 99 87 3e 81 65 06 be
       -1.1265895 -0.2647801 0.26484272 -0.13124658
000010 d0 23 e9 bd a2 6d be be 52 dc d2 3f 06 22 25 3f
       -0.11383784 -0.37193018 1.6473486 0.6450504
000020 c6 67 ef 3e b3 00 d9 3d 58 ab 01 bf 5e 20 41 be
       0.4675886 0.105958365 -0.50652075 -0.18860003
000030 58 36 06 40 5a 7c 23 3f 61 74 e0 3d fd a5 96 be
       2.0970669 0.6386162 0.109596975 -0.29423514
000040 24 f7 97 bf ae da bb 3e
       -1.1872296 0.36690277

net.0.bias f4 [3]
000000 b7 e1 06 3f 5d 5b cf 3f 2d f7 08 40
       0.52688164 1.6199757 2.1400864

net.2.weight f4 [3, 3]
000000 c4 28 87 be f8 59 85 3f 32 1c a1 3f 64 ce f8 be
       -0.2639829 1.0418081 1.258673 -0.48594964
000010 f1 41 67 3f 2e 0c 8c 3f e2 3e 48 be 54 c6 61 3f
       0.90334994 1.0941217 -0.19555238 0.8819325
000020 18 fd 8b 3f
       1.0936613

net.2.bias f4 [3]
000000 55 5f 2c 3f bf 4a a1 3e b2 4a a0 3e
       0.67332965 0.3150234 0.31306988

net.5.weight f4 [1, 3]
000000 a4 75 ad 3f 9a 92 8f 3f 37 f5 9a 3f
       1.3551526 1.1216614 1.2106084
