HW1/submit/B06702064_ShengYenLinBest.pth (torch, 7136 bytes, 19 tensors)

net.0.weight f4 [3, 6]
00000000: 67fb 873f 7beb f63d 87de 90bd 7499 253e
00000010: 70eb 133f 82c0 a33e f04a a3c0 edd2 963e
00000020: c6f3 ba3d 38d7 32bd 96c7 d63e 5784 ff3e
00000030: 7553 da3f 590e e83f 0ba7 1e3f a830 d83d
00000040: 178c 6ebf ae97 c33e
1.0623597 0.12056633 -0.07073694 0.16171819 0.57781124 0.3198281 -5.1028976 0.294578
0.09128527 -0.04366228 0.41949147 0.49905655 1.7056719 1.8129379 0.6197364 0.105561554
-0.9318251 0.3820166

net.0.bias f4 [3]
00000000: 4fea 72a9 eb27 2f3a 8c28 8b39
-5.3938025e-14 0.00066816685 0.00026542356

net.1.weight f4 [3]
00000000: 0d13 973c 07c0 7d3f ea9e 843f
0.018441701 0.99121135 1.0360997

net.1.bias f4 [3]
00000000: 26dc 13bf 2f7c f23f 660b be3f
-0.57757795 1.8944148 1.4847229

net.1.running_mean f4 [3]
00000000: 242a 3b3c 4e53 38bd 3a2c 353d
0.011423621 -0.04500132 0.04423163

net.1.running_var f4 [3]
00000000: f0f5 4240 f1e7 b141 72cf 2041
3.0462608 22.238253 10.050646

net.3.weight f4 [3, 3]
00000000: 141c b2be f8e6 9c3f e7f6 55bf bb1d 933d
00000010: f7ef 43bf 44bd a43f b872 1e3e 3f4c 7a3f
00000020: 3af1 60bf
-0.34787047 1.2257986 -0.8357987 0.07183405 -0.7653803 1.2870259 0.15473449 0.9777259
-0.8786808

net.3.bias f4 [3]
00000000: 8c27 01b9 0c84 4cba a928 dc37
-0.00012317131 -0.0007801659 2.6244978e-05

net.4.weight f4 [3]
00000000: c8f3 d13f 0f15 d33f 8884 ce3f
1.6402521 1.6490802 1.6134195

net.4.bias f4 [3]
00000000: cd1b 6a3d 3be2 31bf 7d1d bf3e
0.05715542 -0.69485825 0.37327185

net.4.running_mean f4 [3]
00000000: 449b 813f b1de 533e dd00 363f
1.0125508 0.20690419 0.7109507

net.4.running_var f4 [3]
00000000: 355a 5d40 916f 5340 72f4 3740
3.4586308 3.3036845 2.8742948

net.7.weight f4 [3, 3]
00000000: 7667 80bf 01cc 833f abca 3fbf c5cd 78bf
00000010: 5ce0 eb3f 9cec 5fbf d2ce b8bf ff27 8a3f
00000020: 14c3 81bf
-1.0031574 1.0296632 -0.7491862 -0.9718898 1.8427844 -0.8747041 -1.4438117 1.0793456
-1.0137658

net.7.bias f4 [3]
00000000: 6883 82b8 982b 54b9 b757 4c39
-6.2233594e-05 -0.00020234135 0.00019487632

net.8.weight f4 [3]
00000000: 1393 2d40 9da2 0a40 63c2 1a40
2.7121017 2.1661751 2.4181144

net.8.bias f4 [3]
00000000: 2d0b ee3f 2285 1e40 a2b1 ee3f
1.859716 2.4768758 1.8647959

net.8.running_mean f4 [3]
00000000: 5632 7dbf 5617 4fbf dbb7 bcbf
-0.9890493 -0.8089498 -1.4743608

net.8.running_var f4 [3]
00000000: 1a73 ec40 96e7 5741 082d 3f41
7.3890505 13.49404 11.948494

net.11.weight f4 [1, 3]
00000000: 0c47 2240 736e 1640 4f86 2d40
2.5355864 2.3504913 2.7113225
