HW1/submit/HW1.model_1101_1204.pth (torch, 2959 bytes, 7 tensors)

net.0.weight f4 [3, 6]
00000000: 7db8 a93e 0242 083f 92b7 0d3e 91dd a8bf
00000010: cca9 99bf b955 423f 1ab2 2c40 b547 0c3f
00000020: 6932 053e a15d a93e 6e2b c6be 7a03 44be
00000030: 49c6 0540 cc2e fabf 0511 8abf d82c 333f
00000040: 47b2 be3d 848b 0fbf
0.33148566 0.5322572 0.13839558 -1.3192617 -1.2004943 0.7591205 2.6983705 0.54796916
0.13007511 0.33079246 -0.3870501 -0.19141951 2.0902274 -1.9545531 -1.0786444 0.699903
0.093113475 -0.5607226

net.0.bias f4 [3]
00000000: 1fe5 39be 2dab 3440 bf7a 35c0
-0.18153809 2.8229477 -2.8356168

net.2.weight f4 [3, 3]
00000000: 0f8c bcbe a202 7abb 521b 69bf 4161 8cb9
00000010: 7458 3e3f ce3e 8bbf 8aa3 2d3f 8a13 ad3f
00000020: 9e65 13c0
-0.36825606 -0.0038148542 -0.9105731 -0.0002677534 0.7435372 -1.0878541 0.67827666 1.3521588
-2.3030772

net.2.bias f4 [3]
00000000: c3fa 1240 9464 aa3f 16f1 d13f
2.2965553 1.3311944 1.6401699

net.4.weight f4 [3, 3]
00000000: 4272 1dbf 7745 d83e 77a6 0340 4ae4 13b7
00000010: 02b4 eaaf ca92 492e 9aa3 6abf e030 673f
00000020: b368 783f
-0.6150247 0.42240497 2.0570352 -8.8150355e-06 -4.2692255e-10 4.5832484e-11 -0.91655886 0.9030895
0.9703476

net.4.bias f4 [3]
00000000: fe45 c53f d1b1 0dbe 4bb3 9a3f
1.5411985 -0.13837363 1.2085966

net.6.weight f4 [1, 3]
00000000: 6aac 0140 c7d7 0031 35e6 8c3f
2.0261483 1.8749107e-09 1.1007754
