HW1/submit/HW1.model_1101_1132.pth (torch, 2895 bytes, 7 tensors)

net.0.weight f4 [3, 3]
00000000: 7c27 4540 0374 4cc0 e600 00bf 5f7b 933f
00000010: b592 08c0 ec80 723f db8a 5a40 2b7a a03d
00000020: 953c 953e
3.080535 -3.1945808 -0.5000137 1.1522025 -2.1339543 0.9472797 3.414725 0.07835802
0.29147783

net.0.bias f4 [3]
00000000: 5e28 93c0 0c95 a2be db35 4d40
-4.5986776 -0.3175434 3.206412

net.2.weight f4 [3, 3]
00000000: 7050 a4be 9f76 e2be cd4f 923e 9b6e f6bc
00000010: cecc 03be a6ee 8fbe d724 49c0 e096 14bf
00000020: 4394 1840
-0.3209262 -0.44231126 0.28576508 -0.030082038 -0.12871096 -0.28111762 -3.1428735 -0.58042717
2.3840492

net.2.bias f4 [3]
00000000: 706f 46bf 5e85 bebd 64d0 c13f
-0.7751379 -0.093027815 1.5141721

net.4.weight f4 [3, 3]
00000000: 2455 693e 00c1 41be 1670 e93f d8d1 c9a3
00000010: 7068 fdbc ccd6 b9be 6487 75b0 1cb2 ecb1
00000020: ac41 5934
0.22786385 -0.1892128 1.8237331 -2.1881336e-17 -0.030933589 -0.3629669 -8.932288e-10 -6.8887527e-09
2.0233591e-07

net.4.bias f4 [3]
00000000: 2345 5040 7bb2 a43b a58f 0232
3.2542198 0.0050261593 7.599657e-09

net.6.weight f4 [1, 3]
00000000: d844 f43f 74d9 97be 7c2a 5db4
1.908351 -0.2965809 -2.0597685e-07
