HW1/submit/HW1.model_1101_1329.pth (torch, 4161 bytes, 11 tensors)

net.0.weight f4 [3, 6]
000000 09 92 ac 3f 49 d4 ac 3e d4 a3 e4 3e b5 b5 33 3f
       1.3482066 0.3375571 0.4465624 0.7019914
000010 6d c2 d1 be 3c bd 61 3e cc bb 09 40 3c 9c 2b 3f
       -0.40968648 0.22044843 2.1520872 0.6703527
000020 d1 99 ad bd 88 74 07 be 9f fe 00 bf 7f f1 0d be
       -0.08476604 -0.13228047 -0.5038852 -0.13861655
000030 cc 27 a4 3f 77 25 de bf c0 83 29 bf ae e0 ff 3e
       1.2824645 -1.7355183 -0.6621666 0.49976104
000040 ba 3a 96 bc 65 31 f7 bd
       -0.01833855 -0.12069968

net.0.bias f4 [3]
000000 48 7e ea bf 1a 0c 27 3f 04 fa fc bf
       -1.8319788 0.6525284 -1.9763799

net.2.weight f4 [3, 3]
000000 a7 bd 47 3f 1d eb 93 3f 28 c1 03 bf 18 ff e7 bd
       0.7802376 1.1556126 -0.5146661 -0.11327952
000010 18 ab 73 bd 9f b5 2d 40 85 ad a7 b9 4f cb 52 ba
       -0.05948934 2.7142103 -0.00031982004 -0.00080411596
000020 e8 ef 86 28
       1.4981031e-14

net.2.bias f4 [3]
000000 46 94 bf 3e 64 03 a9 3f 8a 00 96 bb
       0.3741781 1.320416 -0.004577701

net.4.weight f4 [3, 3]
000000 ad 93 46 3f 80 bb 66 bf f5 fd b2 3b 3f e8 70 3f
       0.77569085 -0.9012985 0.005462403 0.9410438
000010 0c a6 a2 bf 81 3b e8 28 36 75 44 3f 5a d2 13 bf
       -1.2706923 2.578298e-14 0.7674135 -0.57742846
000020 fd 48 40 a8
       -1.0673968e-14

net.4.bias f4 [3]
000000 cc 7d c0 3e f0 3c ba be 9e 04 d0 3d
       0.37595975 -0.36374617 0.10157131

net.7.weight f4 [3, 3]
000000 32 2c 80 bc c0 c0 75 29 63 6a c3 28 d1 65 0b 3f
       -0.015646074 5.4568112e-14 2.1695487e-14 0.54452235
000010 bb e4 53 3f 50 39 27 3f c4 00 04 3f 4d 72 30 3f
       0.8277089 0.65321827 0.5156367 0.6892441
000020 ca 6a 01 3f
       0.5055357

net.7.bias f4 [3]
000000 73 49 2c bd 31 c6 d0 bd a5 42 14 3c
       -0.042062234 -0.10194052 0.009049092

net.10.weight f4 [3, 3]
000000 5d 37 be a8 f5 ad 27 be b1 69 3e b7 5e 68 f9 a6
       -2.1118247e-14 -0.16374953 -1.1349491e-05 -1.7306135e-15
000010 8d a8 7d 3f 81 83 88 3f 1a 5c 6b a8 1b d2 5f 3f
       0.99085313 1.0665132 -1.3065092e-14 0.8742997
000020 b6 40 71 3f
       0.94239366

net.10.bias f4 [3]
000000 f7 10 30 be 4f 3f 03 41 0d c5 0d c1
       -0.17193972 8.202956 -8.860608

net.12.weight f4 [1, 3]
000000 77 d8 be 30 62 02 51 40 72 4e 56 c0
       1.3885842e-09 3.2657704 -3.348538
