HW1/submit/HW1_model_test.pth (torch, 2895 bytes, 7 tensors)

net.0.weight f4 [3, 6]
00000000: 981a a3c0 e09b 483d c1a0 963f e73c 673f
00000010: cfc1 ec3d d853 0a40 96d9 b5c0 3751 55bf
00000020: 4e73 d2bf 9260 2a3e c0c1 993c 85cb 7bbf
00000030: 8405 ef3f e15c 4c3f 5fdf 4e3f 65ea 863d
00000040: a45b 8abf 891b da3e
-5.0969963 0.04897678 1.1767808 0.90327305 0.115604036 2.1613674 -5.682811 -0.8332705
-1.6441438 0.16638401 0.018769145 -0.9835742 1.8673558 0.7982922 0.8080959 0.06587676
-1.0809216 0.42599133

net.0.bias f4 [3]
00000000: 64b5 0c40 9212 27bf a3e5 603e
2.1985712 -0.6526271 0.219626

net.2.weight f4 [3, 3]
00000000: 7ce9 79c0 7f58 abbf 51f8 103f 0298 8cbe
00000010: 706d 8ebe 9069 653f bce2 d4bf a217 d6bf
00000020: e12b 923f
-3.9048758 -1.3386382 0.566289 -0.27459723 -0.2781787 0.896142 -1.6631694 -1.6725962
1.1419641

net.2.bias f4 [3]
00000000: b54d 483f 3b8b bc3f 8c1d 803f
0.7824357 1.472999 1.0009017

net.5.weight f4 [3, 3]
00000000: a522 723f 2f6d 4e3f ae19 47bd 381e 0d3f
00000010: 33a1 273f c87c 403e aa0c 6c3f 4021 af3e
00000020: f6b9 703e
0.94584113 0.8063535 -0.048608474 0.55124235 0.65480345 0.187976 0.92206824 0.34205055
0.23508438

net.5.bias f4 [3]
00000000: 9c41 3b40 bed4 2e40 9020 4440
2.9258795 2.7317348 3.0644875

net.8.weight f4 [1, 3]
00000000: b1e6 9d3f 6402 a53f 2834 9a3f
1.2336026 1.2891355 1.2047167
